Landing_Model.pth (torch, 2711 bytes, 6 tensors)

network.0.weight f4 [12, 6]
-0.72856367 -0.21154301 0.7336755 1.9170717 -0.5231231 0.14137647 0.1976427 -1.2256904
1.8523209 -3.301041 -7.143948 -1.4965694 1.1247745 1.398094 -0.6192287 -4.723943
0.7845895 3.3973036 -0.080770046 1.1852432 -1.9123104 3.0786889 2.2393239 -0.85451764
1.3449006 1.0925243 -0.26537958 -3.7969503 0.39004293 -0.6606687 -0.46863997 -0.38518777
1.0270373 2.3527694 2.014923 4.0802364 1.347389 0.6608159 -0.44293028 -0.5071555
-1.807474 0.52930486 0.36392134 0.15610161 -3.425427 -1.551893 1.9911107 0.97382843
-1.1757574 -0.86239004 2.070043 1.7933131 1.8957471 -4.8774586 0.6583656 -0.9520895
1.5586292 1.3082376 -1.35848 1.1359624 0.7523513 2.1245131 -2.383368 3.7779772
-7.669998 0.34678787 1.3775668 1.5853825 1.0386491 -1.819733 -0.27321368 -2.1088986
00000000: 2683 3abf bb9e 58be 28d2 3b3f 9b62 f53f
00000010: 65eb 05bf fec4 103e d962 4a3e 6ce3 9cbf
00000020: da18 ed3f 4144 53c0 399b e4c0 968f bfbf
00000030: 9cf8 8f3f bff4 b23f c685 1ebf 8b2a 97c0
00000040: dcda 483f 6c6d 5940 c46a a5bd 0db6 973f
00000050: 96c6 f4bf 3d09 4540 1551 0f40 abc1 5abf
00000060: b425 ac3f d6d7 8b3f d5df 87be 3c01 73c0
00000070: b5b3 c73e 9521 29bf 94f1 efbe 5537 c5be
00000080: f575 833f c693 1640 80f4 0040 4c91 8240
00000090: 3e77 ac3f 3b2b 293f c2c7 e2be f1d4 01bf
000000a0: 4f5b e7bf 8680 073f e653 ba3e 1ad9 1f3e
000000b0: 323a 5bc0 6ea4 c6bf b7dc fe3f d24c 793f
000000c0: 387f 96bf 98c5 5cbf 967b 0440 498b e53f
000000d0: d7a7 f23f 2414 9cc0 a68a 283f 23bc 73bf
000000e0: 2981 c73f 5474 a73f ace2 adbf 3767 913f
000000f0: 189a 403f 06f8 0740 1a89 18c0 61ca 7140
00000100: a070 f5c0 2e8e b13e 1c54 b03f d0ed ca3f
00000110: 74f2 843f 03ed e8bf aae2 8bbe 32f8 06c0

network.0.bias f4 [12]
-1.0313829 -0.7473823 0.37779406 0.4291615 -0.28160062 -0.41973704 -1.6421254 -0.61317676
-1.147851 -0.95574826 0.24387921 -1.748128
00000000: 5b04 84bf 7254 3fbf 396e c13e 0ebb db3e
00000010: f52d 90be c6e7 d6be 2a31 d2bf 27f9 1cbf
00000020: c8ec 92bf ebab 74bf 79bb 793e a9c2 dfbf

network.2.weight f4 [4, 12]
-0.79062194 -2.869191 4.5131755 -0.4454365 2.1250792 2.0748982 1.3744533 3.5659556
-3.6305716 -0.51939213 -2.5270753 -0.3930055 0.8930302 -0.4632136 -0.92828196 -0.040051825
-2.2362504 3.6670156 -0.42223942 0.0807341 -0.87921697 1.0542915 0.09981076 -1.4517193
0.99388534 -2.618685 2.961775 -0.6376565 -0.5684326 2.9556386 0.36530575 0.30341515
-3.2854087 -0.5783717 -2.609225 -0.8572496 -0.54794943 1.6802133 2.6867409 -1.3644236
2.625797 -1.7488116 0.112300076 0.8336999 -2.1494856 -1.6666628 -2.0582135 1.8250296
00000000: 3366 4abf d3a0 37c0 ef6b 9040 4110 e4be
00000010: 4c01 0840 22cb 0440 16ee af3f 9e38 6440
00000020: 495b 68c0 e2f6 04bf 9abb 21c0 0438 c9be
00000030: a19d 643f 552a edbe e3a3 6dbf 620d 24bd
00000040: ba1e 0fc0 62b0 6a40 c42f d8be eb57 a53d
00000050: 5d14 61bf 06f3 863f 9569 cc3d f0d1 b9bf
00000060: 456f 7e3f 8998 27c0 b98d 3d40 753d 23bf
00000070: cd84 11bf 2f29 3d40 5b09 bb3e 3b59 9b3e
00000080: 2344 52c0 2b10 14bf 8bfd 26c0 b674 5bbf
00000090: 6a46 0cbf 3b11 d73f 90f3 2b40 6fa5 aebf
000000a0: 0f0d 2840 0fd9 dfbf 95fd e53d 5b6d 553f
000000b0: 2c91 09c0 3555 d5bf c5b9 03c0 929a e93f

network.2.bias f4 [4]
-3.9130177 -1.1088628 -2.4133005 -0.048473038
00000000: e26e 7ac0 37ef 8dbf 8473 1ac0 aa8b 46bd

network.4.weight f4 [2, 4]
-6.330191 5.7362103 -1.0850778 -8.583647 -5.171566 -2.4654093 -7.9051166 0.8926457
00000000: ed90 cac0 098f b740 d4e3 8abf 9e56 09c1
00000010: 787d a5c0 44c9 1dc0 b7f6 fcc0 6e84 643f

network.4.bias f4 [2]
-1.0994195 0.3864674
00000000: c7b9 8cbf 0edf c53e
