Landing_Model.pth (torch, 2711 bytes, 6 tensors)

network.0.weight f4 [12, 6]
0	0xbe7274b5	-0.23677333
1	0xbf44cc56	-0.7687429
2	0x3db1c9eb	0.08681091
3	0x3fcc71cb	1.5972227
4	0x3d3b9e9e	0.045805566
5	0xc0daca6d	-6.83721
6	0x3fa85271	1.3150159
7	0x3fbd7a42	1.4802935
8	0xbf8ec652	-1.1154273
9	0xc01116e7	-2.2670228
10	0xc00b581c	-2.1772528
11	0xc08b1d77	-4.347347
12	0xbf5be16b	-0.85890836
13	0xc015ba10	-2.3394814
14	0x3ed5ae73	0.41734657
15	0x40b69c51	5.7065816
16	0x3db40ba4	0.08791283
17	0x40449c98	3.0720577
18	0xc02eb261	-2.7296374
19	0xc05f35d1	-3.4876597
20	0x3fe52840	1.7902908
21	0x40dc3442	6.881379
22	0xbfbc3282	-1.4702914
23	0xbfd17a53	-1.6365455
24	0xbea2b3ec	-0.31777894
25	0xbfc620b7	-1.5478734
26	0xbf8b8a8c	-1.0901656
27	0xbf0a7322	-0.5408193
28	0x3ed3cf69	0.4136918
29	0xc015113e	-2.3291774
30	0x3e6c4b96	0.23075709
31	0xbf3be322	-0.7339345
32	0xbfe78814	-1.8088403
33	0xc00344c4	-2.0510721
34	0x3fab1824	1.3366742
35	0x4044bf7c	3.0741873
36	0x3f185120	0.59498787
37	0xbf9f16a9	-1.242879
38	0x3f5185e2	0.81844914
39	0xbf142656	-0.57870996
40	0x40403f07	3.003847
41	0xbd9fb38d	-0.077979185
42	0xc0016949	-2.022051
43	0xbec2d9b7	-0.38056728
44	0xc06d6386	-3.7091994
45	0x4086c37c	4.211363
46	0x4080d92d	4.0265107
47	0x3fdaa426	1.7081344
48	0x3f7af0e4	0.9802382
49	0x3e84a68b	0.25908312
50	0x3f2ed360	0.6829128
51	0xbe675f45	-0.22594936
52	0x3f6adff5	0.9174798
53	0x4090d2e8	4.5257454
54	0xbd91c753	-0.07118096
55	0x3d842c89	0.06453807
56	0x3e9eca09	0.31013516
57	0x3facfbff	1.3514403
58	0x3f992d73	1.1966995
59	0x4042f562	3.046227
60	0xc02479ab	-2.569926
61	0xc027207f	-2.6113584
62	0xc00c5e9b	-2.1932743
63	0x409f0116	4.9688826
64	0xbffb1f50	-1.9618931
65	0x3f658aa1	0.89664656
66	0x4009491d	2.1450875
67	0x3e5336f3	0.2062643
68	0xbed7ca41	-0.42146495
69	0xbebe53a3	-0.37173185
70	0xc0bddf8a	-5.9335375
71	0xc05ba789	-3.4321005

network.0.bias f4 [12]
0	0xbf9bb978	-1.2165976
1	0x3f9f3ec6	1.2441032
2	0x3fee7d65	1.8632017
3	0x3fed3ebf	1.8534774
4	0x3eb9143d	0.36148253
5	0xbf18a42c	-0.59625506
6	0x3ecc6cbe	0.39926714
7	0xbf1faac1	-0.62369925
8	0x3f856c45	1.0423666
9	0xc00a5f6f	-2.1620748
10	0xbf3b3996	-0.73134744
11	0xbe8b058f	-0.27152678

network.2.weight f4 [4, 12]
0	0x3f6c91ec	0.9241016
1	0xc01380a9	-2.3047278
2	0x40038e51	2.0555613
3	0x4016767d	2.350982
4	0xbe2f36e0	-0.17110777
5	0xbf4784bf	-0.7793693
6	0x3f1a6ddc	0.6032388
7	0x4007d32b	2.1222637
8	0x3f25dd5e	0.64790905
9	0x3f114d35	0.56758434
10	0x3f17b603	0.592621
11	0xbebac114	-0.36475432
12	0xbed705e6	-0.41996688
13	0x40642699	3.5648558
14	0xbff52960	-1.9153252
15	0xc0416ff7	-3.0224588
16	0x3fed418b	1.8535627
17	0x3fd16c3a	1.6361153
18	0x3f8155d9	1.0104324
19	0xbf035427	-0.5130028
20	0xbe68da5c	-0.22739547
21	0xbea8428a	-0.32863265
22	0xbfd1c626	-1.6388595
23	0xbc5eb906	-0.013593918
24	0xc0ac7e29	-5.3904004
25	0xc05bc64d	-3.4339783
26	0x4003191b	2.0484073
27	0xbfc5f736	-1.5466068
28	0xbfa9158d	-1.3209702
29	0x40015e65	2.0213864
30	0x3de5ddbe	0.112239346
31	0x3fe864f7	1.8155812
32	0x3fd34ec3	1.6508411
33	0x401a0d8e	2.4070773
34	0xbf80b2fb	-1.005462
35	0xc05bd4ad	-3.4348557
36	0xc00bbc18	-2.1833553
37	0xbf4fae8e	-0.81125724
38	0x3f990152	1.1953528
39	0x3cad6930	0.021168321
40	0x3fafb770	1.3727856
41	0xbecce095	-0.40015092
42	0x3ff265cd	1.8937317
43	0x3f523161	0.82106596
44	0x3fa6e271	1.3037854
45	0x3fd658e5	1.6745878
46	0xbfa974d9	-1.3238784
47	0xbf5ad8ea	-0.85487235

network.2.bias f4 [4]
0	0xbb031b67	-0.0020005347
1	0xbdd3e877	-0.103470735
2	0x3e1803b8	0.14845169
3	0xc05db756	-3.464315

network.4.weight f4 [2, 4]
0	0x408a83f9	4.32861
1	0xc0e3669a	-7.1062746
2	0xc01114a8	-2.2668858
3	0x3d424e08	0.047437698
4	0xbf9d49d4	-1.2288156
5	0xbe84e2a1	-0.25954154
6	0xc09a0300	-4.812866
7	0xc0ed6ddf	-7.419662

network.4.bias f4 [2]
0	0xbf086ad7	-0.53288025
1	0x4081ce2d	4.056418
