Landing_Model.pth (torch, 2711 bytes, 6 tensors)

network.0.weight f4 [12, 6]
-2.8400753 -4.298084 -0.005775365 4.3382363 1.2640717 3.9495416 -3.4363983 -0.5851463
1.1061755 10.879082 -3.5325587 4.8688445 4.1407275 5.0592036 2.1857097 -7.22034
-0.781088 2.1143951 1.8741742 0.24408096 4.325116 -3.3362343 7.3808 -0.7388639
0.37604493 -0.2805763 0.085162155 2.2995915 2.6416488 7.1868925 -1.6358334 -1.5196042
1.0685887 5.276857 -0.58908296 0.5992498 -1.2704403 -0.9640465 2.1288323 6.2101636
-0.35095364 -5.9204116 0.48058274 1.4743949 -1.7326468 1.9687344 9.366827 5.7064724
0.39582226 0.5743064 -1.7986498 -2.819129 0.12258159 -1.1266607 1.9298444 0.5707255
1.9771423 -2.4519458 -5.3525662 0.4228427 -1.1184204 -0.5589191 -0.97381586 -0.09448907
0.38109806 -7.3683004 3.0811994 2.245177 0.55915475 -2.3685303 -2.2204921 -6.082518
00000000: cbc3 35c0 e789 89c0 463f bdbb d5d2 8a40
00000010: 1acd a13f 4ac5 7c40 f3ed 5bc0 26cc 15bf
00000020: 2997 8d3f b810 2e41 7115 62c0 93cd 9b40
00000030: d780 8440 ffe4 a140 abe2 0b40 060d e7c0
00000040: 62f5 47bf 4052 0740 f1e4 ef3f 5cf0 793e
00000050: 5a67 8a40 dd84 55c0 832f ec40 2f26 3dbf
00000060: f688 c03e b2a7 8fbe 7f69 ae3d 822c 1340
00000070: c610 2940 06fb e540 fd62 d1bf 6482 c2bf
00000080: 84c7 883f 03dc a840 24ce 16bf 6f68 193f
00000090: ca9d a2bf c0cb 76bf ca3e 0840 a9b9 c640
000000a0: 32b0 b3be 0374 bdc0 f10e f63e f9b8 bc3f
000000b0: 5fc7 ddbf 7dff fb3f 86de 1541 6c9b b640
000000c0: 37a9 ca3e bf05 133f 283a e6bf 9c6c 34c0
000000d0: 0f0c fb3d 6b36 90bf 2405 f73f 111b 123f
000000e0: 0013 fd3f aeec 1cc0 3948 abc0 d77e d83e
000000f0: 6628 8fbf 5215 0fbf ff4b 79bf 7c83 c1bd
00000100: 491f c33e 1ec9 ebc0 5f32 4540 fbb0 0f40
00000110: c424 0f3f 0096 17c0 8b1c 0ec0 fda3 c2c0

network.0.bias f4 [12]
-2.5482547 -2.4552708 -3.45998 0.14366436 -1.6031375 1.1300783 0.30735937 0.29981616
0.6044461 -2.9227543 -0.65371937 -1.9062957
00000000: 9b16 23c0 2823 1dc0 5070 5dc0 c01c 133e
00000010: 9c33 cdbf 68a6 903f 355e 9d3e 8181 993e
00000020: fbbc 1a3f 680e 3bc0 275a 27bf 7f01 f4bf

network.2.weight f4 [4, 12]
-1.0874597 3.1036417 -0.5555893 2.025912 4.0425954 -0.5019266 -1.5355705 5.334361
0.20379823 -0.73418593 -2.8309503 -5.176063 -2.226186 -2.9516258 1.5999185 1.35786
0.21607907 -1.5636616 -4.555966 -1.1069964 0.92507344 -0.14101425 0.4809133 0.54912156
-1.6956986 1.5649506 0.500878 3.2852836 4.885208 -0.0723746 -1.7431581 5.085144
0.12799439 -1.4234341 -5.3799353 -4.122232 2.275662 3.597703 -1.6766298 -1.7470008
1.1933464 1.8538905 3.0393095 2.1191962 -1.925455 -2.0331352 -2.3257515 -0.9627064
00000000: e131 8bbf 11a2 4640 1a3b 0ebf 8ba8 0140
00000010: f15c 8140 437e 00bf 938d c4bf 16b3 aa40
00000020: 7cb0 503e 9cf3 3bbf 4a2e 35c0 4fa2 a5c0
00000030: d579 0ec0 70e7 3cc0 21ca cc3f 5bce ad3f
00000040: d543 5d3e 1026 c8bf 79ca 91c0 0fb2 8dbf
00000050: 9dd1 6c3f 0a66 10be 453a f63e 3b93 0c3f
00000060: a70c d9bf 4d50 c83f 8a39 003f 1642 5240
00000070: a053 9c40 2239 94bd ce1f dfbf 80b9 a240
00000080: f610 033e 1733 b6bf 6e28 acc0 53e9 83c0
00000090: 72a4 1140 c440 6640 ce9b d6bf b99d dfbf
000000a0: 93bf 983f 494c ed3f 0c84 4240 e9a0 0740
000000b0: 4f75 f6bf e31e 02c0 1dd9 14c0 ed73 76bf

network.2.bias f4 [4]
-3.8366413 -0.19433801 -0.3357775 -0.5992865
00000000: 888b 75c0 8b00 47be 07eb abbe d76a 19bf

network.4.weight f4 [2, 4]
0.07004684 -7.7721567 -2.3605049 5.843025 -9.09659 -2.1188626 -8.514109 -2.698174
00000000: b874 8f3d 82b5 f8c0 8312 17c0 10fa ba40
00000010: a28b 11c1 729b 07c0 ca39 08c1 e2ae 2cc0

network.4.bias f4 [2]
2.8145974 5.2572207
00000000: 5d22 3440 273b a840
