Landing_Model.pth (torch, 2711 bytes, 6 tensors)

network.0.weight f4 [12, 6]
00000000: 010a 1cbf ab54 19bf 81c7 15bf 4691 fe3f
00000010: 1ca0 063f 2a66 983e e35d 863f 7713 7f3f
00000020: bd4e 05bf 75b8 5ec0 636f 1e3f ad93 f5be
00000030: aea9 88bd 13e0 ae3e 08a2 74bf f3ae 45be
00000040: ae72 2c40 a72b 8a3e c7a1 9d3f 993a 8dbe
00000050: 6303 1440 c561 08c0 b880 0940 c338 723f
00000060: 1484 39bf cf4a b0be e350 313d 0625 f03f
00000070: 7f7d cabd d28b 1b40 33b3 d43d 627a 7fbe
00000080: bafd be3e 3650 453f 8867 3d3d 9998 07c0
00000090: b26f 40bf c409 5abe 167a 5d3f dc09 ae3e
000000a0: 2c13 20be 7dd5 07c0 7978 913e 0821 62be
000000b0: eb5b b73f 6b40 d1be 8a30 1140 4898 f13e
000000c0: c21d c43e 6149 593f 79da 88be fd49 2ac0
000000d0: 2dbd 3e3f 6d6b ae3f 9d61 8abe 702d 9b3e
000000e0: 0602 c43e 868d d2be 89a4 97bd ce46 a83f
000000f0: 573c 0e3f 11f3 543e 7365 883f 9ee7 94bf
00000100: b8d8 40c0 dd87 b33e 53e7 9c3e 8475 9e3e
00000110: 5c19 3ac0 f487 03c0 2a9e f0bf 446a d6bd
-0.60952765 -0.5989482 -0.58507544 1.9888084 0.5258806 0.29765445 1.0497402 0.99639076
-0.5207327 -3.4800084 0.6188871 -0.4796423 -0.06672989 0.3415533 -0.9555974 -0.19305019
2.6944995 0.2698643 1.2314996 -0.2758377 2.3127067 -2.1309674 2.1484814 0.9461786
-0.7246716 -0.34432074 0.04329003 1.8761299 -0.09887218 2.430409 0.10385742 -0.24949029
0.37302953 0.7707552 0.046241313 -2.1186888 -0.75170434 -0.21292788 0.86514413 0.33991897
-0.15632313 -2.1224053 0.28412226 -0.22082913 1.4324926 -0.4086946 2.2685876 0.47186494
0.38303953 0.8487759 -0.2672918 -2.660766 0.7450741 1.3626534 -0.27027598 0.30308104
0.38282794 -0.411236 -0.074044295 1.3146608 0.5556082 0.20795847 1.065596 -1.1633184
-3.0132275 0.35064593 0.30645236 0.30949032 -2.9077978 -2.055173 -1.8798268 -0.10469487

network.0.bias f4 [12]
00000000: b2cc 613f ccd1 bf3c 1a7f f83e 5a97 e03e
00000010: 7de3 9b3e a3aa 29be 0ac0 133f f064 f73e
00000020: 46bd 003f 13e2 26bf aed4 a6be 5e3c 723f
0.88202965 0.023415469 0.4853447 0.43865472 0.30446997 -0.16568999 0.57714903 0.48319197
0.5028881 -0.6518871 -0.32584137 0.94623363

network.2.weight f4 [4, 12]
00000000: 92c9 613f 48df 9ebf f27e 85bd f6e4 91bf
00000010: 1762 2dbe 9fc5 c53f 3ccc 0b40 2297 10bf
00000020: 1982 debf eb30 74be feca 703f d692 23bf
00000030: c5fb 92bf bc22 f63f a84d 53be 615e e53f
00000040: cc83 56bf 0d00 4fbf 5d39 4cbf cdbb 743f
00000050: 0370 ec3f 4003 0f3e 713f 573f 70ca 1b40
00000060: 7513 003c c224 423f f549 13bf 9be4 e1bf
00000070: 2318 eabf 2aac c23f 3b84 0740 3fe1 46be
00000080: 5b07 6abf d9c0 49bf 220a 8c3f 9219 243f
00000090: f3c6 9bbf 9347 0940 587d b7bf db96 143f
000000a0: 56b2 d0bf e703 0c3f ddac 5b3f 413c eb3e
000000b0: 6344 843f f2fd 67be d14e e13f ffad 983f
0.88198197 -1.241189 -0.065183535 -1.1397998 -0.1693195 1.5450934 2.1843405 -0.5648061
-1.7383453 -0.23846786 0.9405974 -0.6389593 -1.1483084 1.922935 -0.20635092 1.7919427
-0.83794856 -0.8085945 -0.7977503 0.9559906 1.8471683 0.13966084 0.8408118 2.4342308
0.007817139 0.7583734 -0.57534724 -1.764789 -1.8288616 1.520879 2.1174457 -0.19421862
-0.91417474 -0.7880989 1.0940592 0.6410152 -1.217009 2.1449935 -1.4335127 0.5804269
-1.6304424 0.54693455 0.85810643 0.45944408 1.033337 -0.22655466 1.7602178 1.1928099

network.2.bias f4 [4]
00000000: a9d7 b73f 2cc6 ef3b 8433 0e3f 3aa1 f4be
1.4362689 0.007317325 0.55547357 -0.47779256

network.4.weight f4 [2, 4]
00000000: 6606 6d40 0614 8bc0 ae95 0ebf a151 52c0
00000010: 6277 4440 fc8b eebd c33c 7a40 9428 2040
3.7035155 -4.3461943 -0.55697143 -3.2862322 3.0697865 -0.11647794 3.9099586 2.5024767

network.4.bias f4 [2]
00000000: f5de 8e3d bd43 173f
0.069761194 0.59087735
