Landing_Model.pth (torch, 2711 bytes, 6 tensors)

network.0.weight f4 [12, 6]
0.27645588 -0.16972014 1.1597482 0.55658317 2.1218367 -0.3237533 -0.23648998 -0.09948152
-0.71169424 -0.04289884 1.0940042 0.23361228 -0.35180745 0.18681523 -0.21305569 -0.29209733
0.0065775192 0.35197905 4.3843603 4.3581433 -0.46130133 -1.8111362 -0.021736939 -0.25596526
2.1129775 1.1299593 -0.30241182 -0.69787604 0.16948913 1.1476442 0.27400747 0.49901393
-0.07126552 -0.07266444 -0.13122031 0.11199218 -2.3260577 -1.7743539 -0.7130528 -0.12366197
-0.79409677 -1.5409313 -1.2728361 -0.48807135 -0.2513835 -0.42853895 0.31030455 2.0404644
0.11428816 -0.15434729 -1.4582875 -0.17333466 -0.83318114 0.71835685 0.937815 0.04137139
0.43186003 -0.35289198 -2.3529818 -0.0999546 0.096745804 -0.32743666 0.53639495 -0.011565455
1.0309672 -0.27447304 -0.6106149 -0.20549408 -0.3182739 -0.389295 -2.2143586 0.21800049
00000000: a08b 8d3e 1ecb 2dbe a172 943f 3c7c 0e3f
00000010: 2ccc 0740 fec2 a5be 6e2a 72be f8bc cbbd
00000020: 9831 36bf b2b6 2fbd 5408 8c3f 0f38 6f3e
00000030: 1b20 b4be 7e4c 3f3e 452b 5abe c88d 95be
00000040: 3b88 d73b 9936 b43e ae4c 8c40 e975 8b40
00000050: b02f ecbe 50d3 e7bf aa11 b2bc e10d 83be
00000060: 063b 0740 82a2 903f b9d5 9abe 01a8 32bf
00000070: 8f8e 2d3e 01e6 923f b54a 8c3e c17e ff3e
00000080: a8f3 91bd 18d1 94bd 9e5e 06be 285c e53d
00000090: 21de 14c0 071e e3bf a18a 36bf 7d42 fdbd
000000a0: ed49 4bbf 3d3d c5bf 4bec a2bf 7de4 f9be
000000b0: 57b5 80be 7569 dbbe 3de0 9e3e f896 0240
000000c0: e90f ea3d 370d 1ebe 2aa9 babf a47e 31be
000000d0: 5c4b 55bf 3ce6 373f a514 703f 0c75 293d
000000e0: c21c dd3e 42ae b4be 4197 16c0 ffb4 ccbd
000000f0: aa22 c63d c7a5 a7be 2e51 093f 097d 3dbc
00000100: bcf6 833f bb87 8cbe 4251 1cbf 0a6d 52be
00000110: ccf4 a2be ad51 c7be 0db8 0dc0 853b 5f3e

network.0.bias f4 [12]
0.5295083 0.01673697 -0.30456182 -0.2101239 -0.26404878 -0.34533283 -1.1821531 0.51483077
-0.58143574 0.5393211 0.29843324 -0.31355426
00000000: db8d 073f f81b 893c 87ef 9bbe b82a 57be
00000010: 6731 87be 77cf b0be cb50 97bf f3cb 033f
00000020: f9d8 14bf f310 0a3f 3ecc 983e 2f8a a0be

network.2.weight f4 [4, 12]
0.0042555924 0.5693785 0.12120739 -1.4230326 0.31381068 -0.2992438 -0.43156847 1.4467459
-0.0175402 -0.87381005 -0.24569137 -0.6058215 -0.36891732 0.31206936 -0.2298547 -2.5837657
-1.6529866 -0.17080277 0.52344096 1.6219926 0.5770983 -1.2504224 -0.1013194 0.2546756
-0.6222827 -0.28579324 -0.65548563 0.19002153 -1.4990684 -0.6849455 1.3808631 -1.498089
0.053531654 1.316982 -0.40353444 1.5974084 -0.38812083 0.5599667 -0.42462158 -2.4063942
-1.7408929 0.2564228 1.1542407 0.03578865 -0.013178633 -0.44692627 -0.01601899 1.2197338
00000000: 7f72 8b3b cac2 113f 953b f83d ef25 b6bf
00000010: cbab a03e 7c36 99be 8bf6 dcbe f82e b93f
00000020: 77b0 8fbc 04b2 5fbf 8596 7bbe 1e17 1bbf
00000030: bbe2 bcbe 8ec7 9f3e 085f 6bbe 6b5c 25c0
00000040: 1195 d3bf ece6 2ebe 3a00 063f 749d cf3f
00000050: b7bc 133f d70d a0bf 8c80 cfbd d764 823e
00000060: eb4d 1fbf 7e53 92be e8cd 27bf 0195 423e
00000070: 79e1 bfbf 9758 2fbf 1fc0 b03f 61c1 bfbf
00000080: 0244 5b3d de92 a83f 119c cebe e177 cc3f
00000090: c6b7 c6be fa59 0f3f 0068 d9be 5d02 1ac0
000000a0: 94d5 debf d949 833e 29be 933f 1f97 123d
000000b0: 31eb 57bc 85d3 e4be 423a 83bc 3d20 9c3f

network.2.bias f4 [4]
-0.08652248 -0.34327954 1.2802622 0.5973948
00000000: b332 b1bd 56c2 afbe a2df a33f deee 183f

network.4.weight f4 [2, 4]
1.2210647 1.8788012 -0.45456985 2.5251632 -1.4008785 -0.62595654 4.6021323 1.535168
00000000: d94b 9c3f 8f7c f03f 61bd e8be 469c 2140
00000010: fd4f b3bf b03e 20bf ab44 9340 6380 c43f

network.4.bias f4 [2]
-0.28081158 2.2655597
00000000: 89c6 8fbe eefe 1040
