Landing_Model.pth (torch, 2711 bytes, 6 tensors)

network.0.weight f4 [12, 6]
-1.5772679 -0.14450996 -0.15918094 0.78456044 1.2810792 1.5980633 -2.008105 -1.1944565
-0.6904863 0.3636372 0.02575226 -2.840963 -2.4272907 -1.8950199 2.1532865 -0.5564221
-1.4534069 0.90932775 -0.41833687 -0.8716501 2.4646025 -2.5091238 -6.64928 -0.5388155
-0.99523133 -1.6141528 0.20245524 3.4516828 -1.1277694 1.2220765 -0.9958538 -0.99053746
-1.9341577 -1.3310504 0.081470884 1.1354432 1.5532937 -0.010629451 -2.491253 -6.464195
1.5505357 2.568075 -0.20927212 -1.822494 0.71642 3.4773927 0.51427186 -4.2382393
-1.6265831 -1.1326083 2.3874915 3.7260258 2.9082177 4.430028 0.5343775 0.36806422
-0.85346663 1.6354547 -1.1962222 2.2336607 0.25109378 -1.1901416 3.174092 -1.8744326
6.5872746 -1.3195052 -0.2528749 1.4917657 -1.4340047 -3.0054 -1.3383179 1.145404
00000000: eae3 c9bf 6bfa 13be 5400 23be f4d8 483f
00000010: 67fa a33f 578d cc3f cb84 00c0 f3e3 98bf
00000020: b6c3 30bf a82e ba3e 67f6 d23c 56d2 35c0
00000030: bb58 1bc0 0390 f2bf 72cf 0940 ae71 0ebf
00000040: 3d09 babf b4c9 683f 4030 d6be 7624 5fbf
00000050: 0cbc 1d40 7c95 20c0 e7c6 d4c0 d0ef 09bf
00000060: 7bc7 7ebf 8f9c cebf 6d50 4f3e 5fe8 5c40
00000070: bf5a 90bf 016d 9c3f 46f0 7ebf dd93 7dbf
00000080: 7b92 f7bf dc5f aabf 35da a63d 3456 913f
00000090: 54d2 c63f 2627 2ebc b070 1fc0 afda cec0
000000a0: f477 c63f 575b 2440 6e4b 56be 7c47 e9bf
000000b0: 4d67 373f 9a8d 5e40 52a7 033f a89f 87c0
000000c0: e033 d0bf 4ff9 90bf a9cc 1840 3577 6e40
000000d0: 3d20 3a40 cac2 8d40 f7cc 083f ea72 bc3e
000000e0: ca7c 5abf 9456 d13f cf1d 99bf 4cf4 0e40
000000f0: 5d8f 803e 8f56 98bf 5324 4b40 68ed efbf
00000100: f4ca d240 8ce5 a8bf d278 81be 2ef2 be3f
00000110: 778d b7bf 7958 40c0 004e abbf 999c 923f

network.0.bias f4 [12]
-2.5320137 -1.653982 -1.5889039 -0.5637343 2.0005 1.5680715 -0.4561969 -1.3777463
-1.1005456 1.3890133 -0.21233806 -0.2878291
00000000: 830c 22c0 afb5 d3bf 3461 cbbf e450 10bf
00000010: 3108 0040 91b6 c83f a492 e9be fe59 b0bf
00000020: aede 8cbf 30cb b13f 266f 59be 565e 93be

network.2.weight f4 [4, 12]
0.9258495 1.8761163 2.4014587 -2.5950756 1.7049279 0.26772436 -4.476277 1.7563046
1.5152044 0.2610672 -2.45821 -3.9355416 -2.3110924 -0.3974448 -3.1538386 2.5761063
-3.332781 -1.9208808 2.1334927 -0.4445909 -2.2082763 -1.1522661 0.78225625 2.0186214
1.9039421 -1.9697694 -0.26167673 -0.59614706 -2.223636 0.46921387 2.408026 -3.8535643
0.011857087 0.58859074 2.793969 0.14168341 -1.1517019 2.6384063 -0.33226764 1.1473055
-1.9526954 -1.2999215 -1.7976679 1.6004087 -5.185396 -2.0778244 -0.7307098 -0.9798037
00000000: 7904 6d3f 9424 f03f 80b1 1940 b815 26c0
00000010: 143b da3f 2b13 893e a93d 8fc0 97ce e03f
00000020: 38f2 c13f 9aaa 853e 5053 1dc0 eadf 7bc0
00000030: f0e8 13c0 e37d cbbe 7ed8 49c0 edde 2440
00000040: 494c 55c0 6cdf f5bf 258b 0840 6ba1 e3be
00000050: 6654 0dc0 757d 93bf f241 483f 1831 0140
00000060: 60b4 f33f 6721 fcbf 7efa 85be 189d 18bf
00000070: 0d50 0ec0 cd3c f03e 191d 1a40 cca0 76c0
00000080: 3a44 423c e2ad 163f 63d0 3240 7515 113e
00000090: f86a 93bf a6db 2840 fc1e aabe e8da 923f
000000a0: ecf1 f9bf d463 a6bf fb19 e6bf 31da cc3f
000000b0: c4ee a5c0 13fb 04c0 cc0f 3bbf 6ad4 7abf

network.2.bias f4 [4]
0.7139147 0.9634627 -0.7491697 2.6870146
00000000: 1dc3 363f 7ea5 763f 96c9 3fbf 0cf8 2b40

network.4.weight f4 [2, 4]
6.0621724 -5.5805564 -7.114305 -3.5326366 3.3395834 3.4575057 -3.2460854 8.059139
00000000: 51fd c140 eb93 b2c0 63a8 e3c0 b816 62c0
00000010: bcbb 5540 c647 5d40 ddbf 4fc0 3cf2 0041

network.4.bias f4 [2]
0.5421757 1.3437814
00000000: 07cc 0a3f 0701 ac3f
