Landing_Model.pth (torch, 2711 bytes, 6 tensors)

network.0.weight f4 [12, 6]
000000 6c 5c fb bf bb 93 4c bf 30 43 cb 3f 35 b7 df 3f
       -1.963758 -0.7991292 1.5879879 1.7477785
000010 b6 4f ad bc d4 92 3b c0 ca 88 0b bf e2 11 ea 3e
       -0.021156173 -2.9308367 -0.545056 0.45716769
000020 88 d9 39 c0 6b 24 53 40 47 c9 bd 40 8f 1d a5 3f
       -2.903902 3.2990978 5.93082 1.2899646
000030 4c 20 04 40 db af 2f 3f 6f e1 b8 bf a4 5b 27 c0
       2.0644712 0.6862771 -1.4443797 -2.6149683
000040 99 d4 07 be ed 03 f1 bf e9 42 9a 3f f6 57 bb 3e
       -0.13264693 -1.8829323 1.2051669 0.36590546
000050 7c e4 c8 3f 6e 0b 76 40 d3 d7 34 3f f0 df 08 c0
       1.5694728 3.8444476 0.7064182 -2.138668
000060 66 9f 67 bf e0 79 5c 3e 8a 70 4c c0 bc 5c 61 40
       -0.904776 0.21530867 -3.1943688 3.521285
000070 38 48 ec c0 75 58 42 bf a5 dc f0 be 5a 89 4f bf
       -7.383816 -0.75916225 -0.47043338 -0.81068957
000080 eb ea 78 3f 5c 9a 7b 40 15 7f 8a bf 0b 48 fb bf
       0.97233456 3.9312963 -1.0820032 -1.9631361
000090 85 90 23 c0 b4 b2 81 bf 9f b0 bb bf 3f e2 ca bf
       -2.5556958 -1.0132661 -1.4663275 -1.5850295
0000a0 7a ac 10 bf 05 84 8c c0 56 6a 3e 3f a5 88 14 3f
       -0.5651318 -4.3911157 0.74381006 0.58021003
0000b0 c4 9e 7e 3f b5 99 19 bf 45 3b 26 bf 77 e8 71 c0
       0.9946101 -0.60000163 -0.6493419 -3.7798135
0000c0 73 8a aa 3f 15 9a 53 3f 68 9f 99 be 07 c6 96 40
       1.3323501 0.82656986 -0.3000443 4.7116733
0000d0 0c 60 3a 40 13 aa 09 3f 1d 7d 7b bf a5 48 c4 be
       2.9121122 0.5377514 -0.9823778 -0.38336673
0000e0 5d 73 dc 3f dd 32 2a 3f 3a cd 3f bf 46 eb 8d 3f
       1.7222706 0.6648386 -0.74922526 1.1087425
0000f0 77 b7 1b c0 ec ac f3 bf 2d fb a2 be e1 38 53 40
       -2.4330728 -1.9037147 -0.31832257 3.3003466
000100 8a 55 8c 3f 6f 6f 86 3f 18 dc 7b 3f ef 9b c9 3f
       1.0963604 1.0502757 0.9838271 1.5750712
000110 d0 5e 4e be c8 20 c6 bf 9f 88 bc bf 4c cb 1e c0
       -0.20153356 -1.5478754 -1.4729193 -2.4811583

network.0.bias f4 [12]
000000 62 0b 80 3f 41 ca a7 3e 50 43 0b 3f 67 a3 be be
       1.0003474 0.32771495 0.54399586 -0.3723404
000010 fe 8e 28 bf 0a 38 db 3e 42 49 b1 bf c6 74 a6 bf
       -0.6584319 0.42816192 -1.3850482 -1.3004386
000020 da a9 da 3f a5 2a 8f 3d 00 23 e4 bf 9c ba bd 3f
       1.7083085 0.06990556 -1.7823181 1.4822574

network.2.weight f4 [4, 12]
000000 b7 19 f1 be af 5b 04 c0 7c 3e 11 40 fb a3 23 bf
       -0.4708993 -2.068096 2.2694387 -0.6392209
000010 62 6c a6 3f 3c 4d 81 3d 07 74 0e 40 b3 6b 0c 40
       1.3001826 0.063135594 2.2258317 2.1940734
000020 3c 88 16 3f 28 aa e2 bf 8c ef b8 bf 7e b8 3d 40
       0.5880163 -1.7708178 -1.4448104 2.9643855
000030 ea cc 8b 3f fc 93 0a c0 e6 95 2e 40 d0 b8 0c 3f
       1.092191 -2.1652822 2.727899 0.549695
000040 0e 6d 8e 3e 7e ab 7b be dd 04 4d 40 20 75 ee 3f
       0.27817577 -0.24577138 3.2034218 1.8629494
000050 e6 48 a8 bf 6b d6 7b 3e 3e d2 b5 bf cf e2 08 40
       -1.3147247 0.24593513 -1.4204786 2.1388433
000060 f6 84 fa 3f b3 c3 ab 3f 13 62 50 bf 38 b1 04 40
       1.9571826 1.3419098 -0.8139965 2.0733166
000070 7f 5f 83 40 94 5e 4d 40 b8 44 1a 3f 2b d2 f0 be
       4.105407 3.2088976 0.60261106 -0.47035345
000080 a7 64 c8 3f ea e9 d0 3f a3 d3 0b 40 e2 54 9f bf
       1.5655717 1.6321385 2.1847923 -1.2447779
000090 d2 2d 18 40 8f 15 2c bf 6f f6 74 bf a7 46 ea 3f
       2.3777966 -0.67220396 -0.9568853 1.8302811
0000a0 7b 0a 56 3f ac e8 3e 40 3c c3 32 40 18 85 05 3e
       0.8360974 2.9829512 2.7931662 0.13039052
0000b0 8b ce aa 3f 38 67 5e 3f 32 bc cf 3f b1 47 85 3f
       1.3344282 0.8687625 1.6229308 1.0412503

network.2.bias f4 [4]
000000 4a 9e 00 be b9 5c 9c 3f da 3a b6 3f 72 bd d3 3f
       -0.12560382 1.2215797 1.423671 1.6542189

network.4.weight f4 [2, 4]
000000 42 f1 14 c0 5c 1f 39 c0 07 42 0a 41 fc 52 c5 40
       -2.3272252 -2.892539 8.64112 6.16638
000010 38 ce a2 40 ce 66 a8 40 99 85 30 40 18 9a 26 40
       5.087673 5.2625494 2.7581542 2.6031551

network.4.bias f4 [2]
000000 44 7b fe bc 10 b2 91 3e
       -0.031064637 0.28456163
