Landing_Model.pth (torch, 2711 bytes, 6 tensors)

network.0.weight f4 [12, 6]
0	0x3dd7b6a1	0.105328806
1	0x3db5a73e	0.088697895
2	0x407dab8b	3.9635952
3	0x3b7a34e4	0.0038178498
4	0xc037b0fd	-2.8701775
5	0x3e25a8ba	0.16177645
6	0xbe61b610	-0.22042108
7	0xbd9940d5	-0.07483069
8	0x3e4aceb6	0.19805416
9	0x3fa84672	1.3146498
10	0xbf2004fd	-0.6250761
11	0xbdce1555	-0.100626625
12	0xbf3e68ef	-0.74378866
13	0x3f1c330c	0.6101539
14	0xbd71d353	-0.059039425
15	0x3fad14ef	1.3522013
16	0x3f1be9d4	0.6090367
17	0xbd63947c	-0.055561528
18	0x3f022e02	0.5085145
19	0x3eb8c890	0.36090517
20	0xbf1df3c3	-0.61700076
21	0xc00229f0	-2.0338097
22	0x3eca6694	0.39531386
23	0xbf18a3aa	-0.5962473
24	0xbe2077ad	-0.15670653
25	0x3dca0565	0.0986431
26	0xbf37076a	-0.7149569
27	0xbffc0e9b	-1.9691957
28	0x3dc8156a	0.097697094
29	0x40c87039	6.263699
30	0xbff9bdd9	-1.9511062
31	0xc01eb9ec	-2.4800978
32	0x3fdd5e59	1.7294418
33	0x40369b41	2.853226
34	0x3ef5018a	0.47852737
35	0x40128852	2.2895703
36	0x40079f7e	2.1191096
37	0xbf488566	-0.7832855
38	0xbf6ce99d	-0.92543966
39	0xc00a1b23	-2.1579063
40	0x4035b17d	2.838958
41	0xbed9fd7d	-0.4257621
42	0xbde5e34d	-0.11224995
43	0xbed5056d	-0.41605702
44	0x3f87eea5	1.0619704
45	0x401cb62e	2.4486194
46	0x3f244354	0.64165235
47	0x3ff1f1ad	1.8901879
48	0xc0024968	-2.0357304
49	0xbfab4e0e	-1.3383195
50	0xc086227e	-4.1917105
51	0x3f9cebf1	1.2259504
52	0xc08f54a2	-4.479081
53	0xbfd5dcac	-1.6707969
54	0xbfd4afa2	-1.6616099
55	0xbe5b4505	-0.21413048
56	0x3f45f36f	0.77324575
57	0x407e1288	3.969881
58	0xbc8d3905	-0.017239103
59	0xc024fc82	-2.5779119
60	0x3fbf7bc4	1.4959645
61	0x3faa6f67	1.3315247
62	0x3e733c59	0.2375349
63	0xbf352fd3	-0.707761
64	0x3fb32b9d	1.3997685
65	0xbed465d2	-0.41483933
66	0x3eaa4f03	0.33263406
67	0x3f5bfc43	0.85931796
68	0x3ecb7750	0.39739466
69	0xbe9aaa52	-0.3020807
70	0x3f9daca9	1.2318317
71	0x3e2cfb26	0.1689268

network.0.bias f4 [12]
0	0xbd3f25b7	-0.046666827
1	0x3f16b909	0.5887609
2	0x3f533094	0.82496
3	0xc0359232	-2.837048
4	0x3f6b2a75	0.9186166
5	0xbffae73c	-1.9601817
6	0x3ffa589a	1.9558289
7	0x3e878e7f	0.26475903
8	0x3ee932a0	0.45546436
9	0x3f53dd58	0.8275962
10	0xbfd3037b	-1.6485437
11	0x3f5852b0	0.8450117

network.2.weight f4 [4, 12]
0	0xbfce3e59	-1.6112777
1	0xbd98eed9	-0.074674316
2	0x3efac84e	0.48980945
3	0x3e8488b2	0.2588554
4	0x4067a3b0	3.6193657
5	0xbe375e35	-0.17907031
6	0x401098fb	2.2593372
7	0x3fd59b77	1.6688069
8	0xc0959e4d	-4.675574
9	0xbfc54e48	-1.5414515
10	0x3fafce48	1.3734827
11	0xbe69d003	-0.22833256
12	0xbf939c77	-1.1532124
13	0xbf5c6819	-0.8609634
14	0x3f3daa84	0.7408831
15	0xbf1b5d0c	-0.60688853
16	0x3fd28014	1.6445336
17	0x3fe268a5	1.7688185
18	0xc011caf1	-2.2780116
19	0x4026266b	2.5960948
20	0xbeb9fcc7	-0.36325666
21	0x3f8208fd	1.0158993
22	0xbf289704	-0.6585543
23	0x3f69980c	0.9124763
24	0x3ff52041	1.9150468
25	0x3eda26e8	0.42607808
26	0xbe5b96b2	-0.21444204
27	0xbf56cd0f	-0.83906645
28	0xc076bbda	-3.8552155
29	0xbe9c2c76	-0.3050267
30	0xbe19e016	-0.15026888
31	0xbf73614c	-0.9507034
32	0x3fcbcddc	1.5922198
33	0x3ed1ff2d	0.41014996
34	0xbfbb51e2	-1.4634364
35	0x3f1f6079	0.6225658
36	0x3e6b7cd1	0.22996832
37	0x3cfe0869	0.03100987
38	0xbe1b1d2a	-0.15147844
39	0xbf5dff80	-0.8671799
40	0xc009d192	-2.1534162
41	0x4029a4e9	2.6506903
42	0xbfe33cc7	-1.7752923
43	0x4036b5ff	2.8548582
44	0x3fa3459d	1.2755619
45	0x3fb7585c	1.432384
46	0xbff1d92e	-1.8894403
47	0x3fb2a3df	1.395626

network.2.bias f4 [4]
0	0x3f4ad5d9	0.79232556
1	0xbe611002	-0.21978763
2	0x3f704744	0.9385874
3	0x3ee5745b	0.44815335

network.4.weight f4 [2, 4]
0	0xc074cd07	-3.8250139
1	0x40655e6e	3.5838885
2	0x3d2f60ba	0.042816855
3	0x40bf16fc	5.9715557
4	0xc08e7974	-4.452326
5	0xc0a2bb10	-5.085335
6	0x40aacb1d	5.337294
7	0x3d0f8230	0.035036266

network.4.bias f4 [2]
0	0x3f2b29a2	0.668604
1	0x3f95a302	1.1690371
