Landing_Model_Sample.pth (torch, 2015 bytes, 4 tensors)

network.0.weight f4 [12, 6]
00000000: 3514 e0be eec2 9fbe d432 323f 54f1 d7be
00000010: ab7e fe3e ac15 8dbe e9e2 9b3d 0879 02be
00000020: 66f3 5b3d a80b 9ebe a867 733e 8dc9 38be
00000030: db10 c7be e37b 8bbe 034c 8c3e e31a 903e
00000040: e310 85be e46f 87be f6d2 c03e 27c2 90be
00000050: 76c0 063f 09b7 4a3e 0619 5c3f 5c9e e63e
00000060: 07de 903f 040e c53e 9516 f3bd 3124 fe3d
00000070: cc9b c03e e202 813e 6546 0c3e aedb c5be
00000080: a93f 4d3e 50c2 87be 5c71 293e e3fe a23e
00000090: bd63 abbf cc85 ddbe e263 74bd 0d18 cabd
000000a0: 4540 e1be 653c 7dbd 105e f3be 5f4c 0fbe
000000b0: 76f1 853e 2b82 cd3d 9251 393e 18c1 a03e
000000c0: 0e14 24bf 96de 12be c09b 693c c469 debd
000000d0: c082 bbbd ad8a d6be 1bd7 8a3e 8f04 1a3f
000000e0: e50a df3e bab3 dc3e 1286 b63e a1cd cf3d
000000f0: 4e18 4c3f 5950 55be f32d c43e 5f8b 983d
00000100: 66ab 4d3f 5558 8e3e 899c c13f e555 de3e
00000110: eec0 bfbd 46a9 ec3e 4ea8 1ebe dab9 bd3e
-0.43765417 -0.31203407 0.6960881 -0.42176306 0.49706015 -0.27555597 0.07611639 -0.12741482
0.05369892 -0.30868268 0.2377001 -0.18045636 -0.38880047 -0.27242956 0.27401742 0.28145513
-0.25989446 -0.26452553 0.3766095 -0.28273126 0.5263742 0.19796385 0.8597568 0.45042694
1.1317757 0.38487256 -0.118695416 0.12409247 0.37618864 0.25197512 0.13698728 -0.38644165
0.20043816 -0.26515436 0.1654715 0.31835088 -1.3389813 -0.4326614 -0.05966557 -0.098678686
-0.43994346 -0.061825175 -0.47532701 -0.13993977 0.26160783 0.10034593 0.18097523 0.3139732
-0.640931 -0.14342722 0.014258325 -0.10860017 -0.09155798 -0.41902676 0.27117237 0.60163206
0.43563 0.4310587 0.35649163 0.101466425 0.79724586 -0.20831431 0.38316306 0.07448458
0.8033966 0.27801767 1.5125896 0.43424907 -0.0936297 0.46222895 -0.1549389 0.37055856

network.0.bias f4 [12]
00000000: 26a6 cabe 57cf ebbe 2d00 b1bc ee75 1ebf
00000010: 0faa f9be ae9b 73be faf7 8d3e 4272 a6be
00000020: 54e7 2d3d 1f16 ee3d a55e 1ebf c734 dd3c
-0.39579886 -0.46056625 -0.02160653 -0.61898696 -0.48762557 -0.23789856 0.27728254 -0.32509047
0.04245694 0.11625313 -0.61863166 0.027002705

network.2.weight f4 [2, 12]
00000000: d5e8 093f c676 8e3e 5440 943e 363f 02be
00000010: f3e6 abbf bf5e 04be d449 923f b9d3 eb3e
00000020: 265e 323f 7e91 b0be 697c 0cbf fdef f5bf
00000030: 1af4 0fbf f7f3 38bd 4c4d 253f 5198 8ebf
00000040: 8e12 a0bf eea7 a7be d283 3e3f f1e5 e1be
00000050: 66e5 2c3f 6917 d23d 2d6b 91bf 505b 90be
0.538709 0.27824992 0.28955328 -0.12719426 -1.3429855 -0.12926768 1.142878 0.4605997
0.6967491 -0.34486002 -0.54877335 -1.9213864 -0.56231844 -0.045154538 0.6457107 -1.1140233
-1.2505662 -0.32745308 0.7441989 -0.44120744 0.67537534 0.102583714 -1.1360832 -0.28194666

network.2.bias f4 [2]
00000000: 6465 c1bd 992b 64bd
-0.09443167 -0.05570564
